…
2021-04-02 00:50:04,524 INFO Configuration: {'output_dir': '/Users/songhune/PycharmProjects/nesap-stl/outcomes/', 'trainer': 'auto_regressive', 'data': {'name': 'climate', 'data_file': '/Users/songhune/PycharmProjects/nesap-stl/data/tosna_data_1yravg.npy', 'patch_size': 5, 'n_train': 14389, 'n_valid': 2048, 'seq_len': 16, 'batch_size': 4}, 'model': {'name': 'predrnn_pp', 'num_hidden': [8, 16, 32, 16]}, 'loss': {'name': 'MSELoss'}, 'optimizer': {'name': 'Adam', 'lr': 0.001}, 'train': {'n_epochs': 32}}
2021-04-02 00:50:09,318 INFO PredRNNPP(
  (clstm): CausalLSTMStack(
    (lstms): ModuleList(
      (0): CausalLSTMCell2d(
        (ln_h): LayerNorm((32,), eps=1e-05, elementwise_affine=True)
        (ln_c): LayerNorm((24,), eps=1e-05, elementwise_affine=True)
        (ln_m): LayerNorm((24,), eps=1e-05, elementwise_affine=True)
        (ln_x): LayerNorm((56,), eps=1e-05, elementwise_affine=True)
        (ln_c2): LayerNorm((32,), eps=1e-05, elementwise_affine=True)
        (ln_o): LayerNorm((8,), eps=1e-05, elementwise_affine=True)
        (conv_h): Conv2d(8, 32, kernel_size=(3, 3), stride=(1, 1), padding=(1, 1), padding_mode=replicate)
        (conv_c): Conv2d(8, 24, kernel_size=(3, 3), stride=(1, 1), padding=(1, 1), padding_mode=replicate)
        (conv_m): Conv2d(16, 40, kernel_size=(3, 3), stride=(1, 1), padding=(1, 1), padding_mode=replicate)
        (conv_x): Conv2d(16, 56, kernel_size=(3, 3), stride=(1, 1), padding=(1, 1), padding_mode=replicate)
        (conv_c2): Conv2d(8, 32, kernel_size=(3, 3), stride=(1, 1), padding=(1, 1), padding_mode=replicate)
        (conv_o): Conv2d(8, 8, kernel_size=(3, 3), stride=(1, 1), padding=(1, 1), padding_mode=replicate)
        (conv_h2): Conv2d(16, 8, kernel_size=(1, 1), stride=(1, 1), padding_mode=replicate)
      )
      (1): CausalLSTMCell2d(
        (ln_h): LayerNorm((64,), eps=1e-05, elementwise_affine=True)
        (ln_c): LayerNorm((48,), eps=1e-05, elementwise_affine=True)
        (ln_m): LayerNorm((48,), eps=1e-05, elementwise_affine=True)
        (ln_x): LayerNorm((112,), eps=1e-05, elementwise_affine=True)
        (ln_c2): LayerNorm((64,), eps=1e-05, elementwise_affine=True)
        (ln_o): LayerNorm((16,), eps=1e-05, elementwise_affine=True)
        (conv_h): Conv2d(16, 64, kernel_size=(3, 3), stride=(1, 1), padding=(1, 1), padding_mode=replicate)
        (conv_c): Conv2d(16, 48, kernel_size=(3, 3), stride=(1, 1), padding=(1, 1), padding_mode=replicate)
        (conv_m): Conv2d(8, 80, kernel_size=(3, 3), stride=(1, 1), padding=(1, 1), padding_mode=replicate)
        (conv_x): Conv2d(8, 112, kernel_size=(3, 3), stride=(1, 1), padding=(1, 1), padding_mode=replicate)
        (conv_c2): Conv2d(16, 64, kernel_size=(3, 3), stride=(1, 1), padding=(1, 1), padding_mode=replicate)
        (conv_o): Conv2d(16, 16, kernel_size=(3, 3), stride=(1, 1), padding=(1, 1), padding_mode=replicate)
        (conv_h2): Conv2d(32, 16, kernel_size=(1, 1), stride=(1, 1), padding_mode=replicate)
      )
      (2): CausalLSTMCell2d(
        (ln_h): LayerNorm((128,), eps=1e-05, elementwise_affine=True)
        (ln_c): LayerNorm((96,), eps=1e-05, elementwise_affine=True)
        (ln_m): LayerNorm((96,), eps=1e-05, elementwise_affine=True)
        (ln_x): LayerNorm((224,), eps=1e-05, elementwise_affine=True)
        (ln_c2): LayerNorm((128,), eps=1e-05, elementwise_affine=True)
        (ln_o): LayerNorm((32,), eps=1e-05, elementwise_affine=True)
        (conv_h): Conv2d(32, 128, kernel_size=(3, 3), stride=(1, 1), padding=(1, 1), padding_mode=replicate)
        (conv_c): Conv2d(32, 96, kernel_size=(3, 3), stride=(1, 1), padding=(1, 1), padding_mode=replicate)
        (conv_m): Conv2d(16, 160, kernel_size=(3, 3), stride=(1, 1), padding=(1, 1), padding_mode=replicate)
        (conv_x): Conv2d(16, 224, kernel_size=(3, 3), stride=(1, 1), padding=(1, 1), padding_mode=replicate)
        (conv_c2): Conv2d(32, 128, kernel_size=(3, 3), stride=(1, 1), padding=(1, 1), padding_mode=replicate)
        (conv_o): Conv2d(32, 32, kernel_size=(3, 3), stride=(1, 1), padding=(1, 1), padding_mode=replicate)
        (conv_h2): Conv2d(64, 32, kernel_size=(1, 1), stride=(1, 1), padding_mode=replicate)
      )
      (3): CausalLSTMCell2d(
        (ln_h): LayerNorm((64,), eps=1e-05, elementwise_affine=True)
        (ln_c): LayerNorm((48,), eps=1e-05, elementwise_affine=True)
        (ln_m): LayerNorm((48,), eps=1e-05, elementwise_affine=True)
        (ln_x): LayerNorm((112,), eps=1e-05, elementwise_affine=True)
        (ln_c2): LayerNorm((64,), eps=1e-05, elementwise_affine=True)
        (ln_o): LayerNorm((16,), eps=1e-05, elementwise_affine=True)
        (conv_h): Conv2d(16, 64, kernel_size=(3, 3), stride=(1, 1), padding=(1, 1), padding_mode=replicate)
        (conv_c): Conv2d(16, 48, kernel_size=(3, 3), stride=(1, 1), padding=(1, 1), padding_mode=replicate)
        (conv_m): Conv2d(32, 80, kernel_size=(3, 3), stride=(1, 1), padding=(1, 1), padding_mode=replicate)
        (conv_x): Conv2d(32, 112, kernel_size=(3, 3), stride=(1, 1), padding=(1, 1), padding_mode=replicate)
        (conv_c2): Conv2d(16, 64, kernel_size=(3, 3), stride=(1, 1), padding=(1, 1), padding_mode=replicate)
        (conv_o): Conv2d(16, 16, kernel_size=(3, 3), stride=(1, 1), padding=(1, 1), padding_mode=replicate)
        (conv_h2): Conv2d(32, 16, kernel_size=(1, 1), stride=(1, 1), padding_mode=replicate)
      )
    )
    (ghu): GHU2d(
      (ln_x): LayerNorm((16,), eps=1e-05, elementwise_affine=True)
      (ln_z): LayerNorm((16,), eps=1e-05, elementwise_affine=True)
      (conv_z): Conv2d(8, 16, kernel_size=(3, 3), stride=(1, 1), padding=(1, 1), padding_mode=replicate)
      (conv_x): Conv2d(8, 16, kernel_size=(3, 3), stride=(1, 1), padding=(1, 1), padding_mode=replicate)
    )
  )
  (decoder): Conv2d(16, 16, kernel_size=(1, 1), stride=(1, 1))
)
2021-04-02 00:50:09,321 INFO Number of parameters: 321880
2021-04-02 00:50:09,321 INFO Epoch 0
